assets/model.tflite (tflite, 447568 bytes, 8 tensors)

arith.constant f4 [10, 32]
000000 6c 9e 73 3e 45 9c 73 bd d3 5c 97 3e 8a d0 93 be
       0.23790902 -0.059475202 0.29563007 -0.2887004
000010 b2 5d 92 3e 59 56 e0 3d bb d9 29 3e d0 da 98 3d
       0.2858711 0.109539695 0.16586964 0.0746361
000020 00 bd 01 bd f1 65 77 bd 9b a3 85 be d6 5f ad be
       -0.031674385 -0.060399953 -0.26101384 -0.3386218
000030 08 16 a8 3e 18 ea cd bd c3 b5 e6 bd 05 6c 4a be
       0.32829309 -0.100544155 -0.11265137 -0.19767769
000040 3e 5d a0 be 15 be bf 3e ca c3 0d 3e c8 7f 6d be
       -0.31321138 0.3744971 0.13844219 -0.23193276
000050 f4 4d 95 be 4f d5 51 be 05 62 96 3e dd f2 b2 be
       -0.29161036 -0.20491527 0.29371658 -0.34950915
000060 ce 1a 94 bb 26 ad 12 3e cd c4 36 3d fc ac 7e bd
       -0.004519797 0.14323863 0.044621278 -0.06217669
000070 e0 29 19 be 77 34 d2 be 65 1e fe bd 18 c5 e8 bd
       -0.1495738 -0.41055652 -0.12408141 -0.11365718
000080 00 33 28 3f a1 92 a2 3e a6 77 78 3e 6f 0e 23 bf
       0.6570282 0.31752494 0.24264392 -0.636939
000090 a1 42 11 be 23 07 0f 3f f6 a6 6b bf 89 06 e7 be
       -0.14185573 0.55870265 -0.9205164 -0.45122173
0000a0 ff 27 03 3f 5e 12 ed 3d 1d da 75 be 6c 98 5d be
       0.51232904 0.11575769 -0.24008985 -0.21640176
0000b0 c3 d5 0f bf d3 33 92 bd c8 97 01 3f cd 60 b9 be
       -0.5618555 -0.07138791 0.50622225 -0.36206666
0000c0 09 e9 32 3e 95 96 ac 3c 3a 32 fb 3d 17 34 8a 3e
       0.17471708 0.021067897 0.12265439 0.26992866
0000d0 b1 72 b2 3c ce 76 e7 3e e5 12 15 bf 5b d3 4d bf
       0.021783205 0.45207828 -0.58231956 -0.8040063
0000e0 d2 94 16 3d 50 c9 8d bd 0e c6 82 be e8 6a 07 bf
       0.03676302 -0.06923163 -0.2554173 -0.528975
0000f0 66 c1 99 3d 27 ed ca 3c e8 54 e0 be 43 70 20 3f
       0.07507591 0.024771286 -0.43814778 0.626713
000100 6b f3 a9 3e f1 f0 89 3e e7 75 15 be 5f 4d 8a be
       0.33193526 0.26941636 -0.14595757 -0.27012154
000110 40 7e 74 bb da 7f 13 bd ab ff 73 3d 9a d6 06 3e
       -0.0037306696 -0.0360106 0.059569996 0.13167801
000120 8e 4a 61 bc ee 2a 91 be 2f e2 e9 3d 9b f9 d0 bd
       -0.013750685 -0.28353065 0.11420094 -0.102038585
000130 67 fb 86 3e af e2 54 3d 7f 4a 5f 3e bf 9f d2 3e
       0.2636368 0.051973995 0.21805762 0.41137502
000140 b8 41 1f be 7e ed 82 3e 4c 24 fa be 66 6e 96 3e
       -0.15552413 0.25571817 -0.48855817 0.29381102
000150 81 a5 4f be 7e b1 40 bd f2 80 9b bd 11 53 2b 3e
       -0.20277978 -0.04704427 -0.07592954 0.16730906
000160 7d bc a7 be ca 84 9a 3e 89 2e 6d be ec bd c8 3d
       -0.32760993 0.30179435 -0.23162283 0.0980185
000170 e6 00 94 be 3d 11 53 be c1 24 8c 3e 1e 29 62 be
       -0.28906935 -0.20612045 0.2737179 -0.22085997
000180 79 55 96 be de 4f 3e 3e c9 f4 fc bd e1 bb 50 3e
       -0.29362085 0.18585154 -0.123513766 0.2038417
000190 68 81 be 3d 92 38 9b be 0f cc e0 be ac 8b 33 bd
       0.09302026 -0.30316597 -0.43905684 -0.043834373
0001a0 be a6 de 3e 80 9a 68 3e b5 86 b4 be 72 a6 17 3e
       0.4348659 0.22715187 -0.35259023 0.14809588
0001b0 be 30 24 3e 29 2a f5 be 16 43 85 3e 22 d8 8e 3d
       0.16034219 -0.47883728 0.26027745 0.06974818
0001c0 97 22 ce 3d 78 74 bc 3e ea 4e 59 3e 7a e6 4d bd
       0.10065191 0.3680761 0.2122151 -0.050268628
0001d0 04 3e c7 3d ab 87 91 3e f7 5f 51 3e 73 16 14 3e
       0.097286254 0.2842382 0.20446764 0.14461689
0001e0 47 83 74 be 86 60 25 bb bc 1f 8c be bb ac 04 3e
       -0.23878203 -0.0025234534 -0.2736796 0.12956516
0001f0 a9 dd 83 be cf 56 cd be f7 53 9d bd 8b ec 23 bd
       -0.2575505 -0.40105292 -0.07682031 -0.040020507
000200 60 34 33 3d 82 5a 2b 3e 39 ab 1a 3c 1c 86 5c be
       0.04375112 0.16733745 0.009440237 -0.21535534
000210 21 94 85 be 39 29 0c bf c8 2a b2 be 9a f1 6d be
       -0.26089576 -0.547504 -0.34798265 -0.23236695
000220 21 67 de be 68 68 30 be 40 94 1c 3e d9 02 2c be
       -0.43438056 -0.17227328 0.15290928 -0.16797961
000230 9c bc 8f 3e 76 76 a1 3c 05 99 08 be b5 12 7b 3e
       0.28073585 0.019709807 -0.13339622 0.24518855
000240 f6 54 6c be 35 e1 6c be 07 54 00 be e7 bc 72 3e
       -0.23079285 -0.23132785 -0.12532054 0.23704873
000250 a2 3c 68 be bc 32 98 3e ef 55 88 3c a5 8c 40 3e
       -0.2267938 0.29726207 0.016642539 0.18803652
000260 84 e7 3d be f3 9e ca 3e 4f c0 19 be c8 ab 60 be
       -0.18545347 0.39574394 -0.15014766 -0.2194053
000270 c0 e7 53 3e 46 88 77 be bc 42 e5 bd 1a f2 b1 bd
       0.20693874 -0.24173078 -0.11194369 -0.08688755
000280 9b 88 c1 3d 34 a5 bc be 30 47 02 3f ba 83 3c 3f
       0.094498836 -0.3684479 0.50889874 0.736385
000290 2b 92 8b 3d 79 0a 4a be 92 12 a5 be dc 43 d8 3e
       0.06814989 -0.19730558 -0.3224073 0.42239273
0002a0 5f e4 19 3e 38 15 9f be ef cd 04 3f f6 c2 f1 be
       0.15028523 -0.31070876 0.5187673 -0.47219056
0002b0 c9 e9 a3 be 4f 12 ea 3e 77 68 e0 bd 4a 2b 84 be
       -0.320143 0.45717093 -0.10957425 -0.25814277
0002c0 4d 1e 1b 3e 87 3f 6d be b4 90 c1 be 70 30 92 be
       0.15148278 -0.23168765 -0.37805712 -0.2855258
0002d0 68 75 bb 3e c9 5c 98 be 06 f9 b3 be fe aa 6a be
       0.3661301 -0.2975829 -0.35150927 -0.22916791
0002e0 cd 5b a9 3e 50 47 c2 be 35 b6 c4 3e 89 78 e8 3d
       0.3307785 -0.37945032 0.38420263 0.11351115
0002f0 31 84 8f 3e 60 6e 73 be 99 b2 19 bf 08 98 92 be
       0.28030542 -0.23772573 -0.60038143 -0.28631616
000300 fc eb 16 3e 12 7a 47 3e 6e 50 11 bd 39 c1 9c b8
       0.14738458 0.1948016 -0.035477094 -7.47465e-05
000310 d7 be 77 bc 36 67 a6 3d fa 68 43 3e fd b6 bd be
       -0.015121183 0.08125155 0.19083014 -0.3705367
000320 b0 bf 7c be 57 0c d4 3c af 99 8c 3e 1e 91 b0 be
       -0.24682498 0.02588479 0.27461 -0.34485716
000330 2c a3 c1 bc 9f c1 68 be 45 71 8c bd 78 46 a4 be
       -0.023637377 -0.2273011 -0.06857542 -0.32085013
000340 6d 5c 47 be f7 a9 98 3e b1 91 a5 bd 9f b5 cf 3e
       -0.19468851 0.29817173 -0.08084429 0.40568253
000350 78 e8 a9 be c0 07 34 3d 09 a3 b5 3e e0 bd 05 3e
       -0.33185172 0.043952703 0.35475948 0.13060713
000360 25 84 8c bd 3c 02 c1 3e 0f 32 93 3d a9 77 90 3e
       -0.06861142 0.37697017 0.07187282 0.28216293
000370 36 ab d3 3d ce 8e d4 be a5 62 06 3e 19 01 00 be
       0.1033539 -0.415152 0.13123567 -0.12500419
000380 3c 7c 6a 3c 05 dc dd 3d 2e f7 c1 be e6 55 30 3f
       0.014311846 0.10832981 -0.37883896 0.6888107
000390 1a 74 e2 3e d3 2f 8f 3d 43 5f 22 be e0 3f 07 3f
       0.44229203 0.069915436 -0.15856652 0.5283184
0003a0 d3 86 b3 be 38 2d cc be b6 5e 6a 3e 4f bd e2 3e
       -0.350638 -0.3987825 0.22887692 0.44285056
0003b0 3f 51 79 be 30 bc b6 3d 96 e3 5e bd 49 4b 4d be
       -0.24347399 0.08922613 -0.05441626 -0.2004825
0003c0 8d e6 d1 3d ee f2 d4 be ef 19 22 bf c8 c0 45 be
       0.10249052 -0.4159159 -0.6332082 -0.19311821
0003d0 87 11 92 3e ee 0e d5 be e2 5c 1a be 61 73 c9 be
       0.28528997 -0.41612953 -0.15074494 -0.3934584
0003e0 b9 d1 07 3e 8a a4 9f be 59 2d fc bd f3 e9 42 be
       0.13263597 -0.3118022 -0.12313337 -0.19034557
0003f0 44 75 71 3e 43 00 00 3f a4 b5 c9 be 5e df 75 3c
       0.2357989 0.500004 -0.39396393 0.015006868

arith.constant1 f4 [10]
000000 44 3b d9 3f d5 be bd 3f 6c c4 c4 3d 7d 9b e7 3e
       1.6971211 1.4823862 0.09607777 0.45235816
000010 a0 4a 40 40 ec e6 eb 3e ea 40 94 3f 33 6d 0f 3f
       3.0045547 0.46074617 1.158231 0.56026
000020 10 78 65 3f c5 0b d9 bf
       0.89636326 -1.6956717

arith.constant2 f4 [32, 64]
000000 84 fe b4 3d 3a 8b 7d 3e 43 3f 05 3f ef dc 80 be
       0.088376075 0.24760142 0.52049655 -0.2516856
000010 06 22 90 3d 0c 9c c4 be a5 b4 8b bd ee 67 02 3e
       0.070377395 -0.38400304 -0.068215646 0.12734959
000020 0e 96 66 3d a7 15 ec bd c5 9e 10 3e a0 6e 3d 3e
       0.056295447 -0.11527567 0.14123066 0.18499231
000030 c2 f8 53 3e 5c 24 46 be 23 9f 6f 3e c8 76 15 3e
       0.20700362 -0.19349808 0.2340055 0.14596093
000040 bb 5c c3 3e 26 2e cc 3d 15 0a f5 be 3e 08 6c 3e
       0.38156685 0.099697396 -0.47859254 0.23050019
000050 20 51 07 3e b7 84 65 3e e0 fc 31 3e 62 cb 2f 3e
       0.1321454 0.22413908 0.1738162 0.17167428
000060 00 a2 aa be 29 62 d6 be 67 dc 2e be e6 a8 12 be
       -0.3332672 -0.41871765 -0.17076264 -0.14322242
000070 f6 71 00 be 91 f3 06 bf d9 1b 34 3d 95 0b 83 3e
       -0.12543473 -0.527154 0.04397187 0.25594774
000080 15 61 35 be 8f da a2 3d 89 03 ac 3e 62 7d ed 3d
       -0.17712815 0.07951843 0.33596447 0.115961805
000090 e6 a8 c4 bd 5b 47 a9 3e 36 d4 21 3c 3f a2 0d 3e
       -0.09602527 0.33062252 0.009877255 0.13831423
0000a0 eb 45 ba bd af 78 07 3e 7f fc 3d 3e 46 93 73 be
       -0.09095367 0.13229631 0.18553351 -0.23786649
0000b0 a1 48 88 3e 10 71 a5 be ff df 89 3e 8e d8 84 3d
       0.2661791 -0.32312822 0.26928708 0.06486617
0000c0 1b 26 cc bd 0e 5b ed 3e b7 d7 88 3e 4e 4e 0e 3e
       -0.099682055 0.46358532 0.26727077 0.13897058
0000d0 5d 96 99 bc 01 6f ca 3c 73 f5 f7 3d e8 f9 d2 3e
       -0.018748457 0.024711134 0.121073626 0.41206288
0000e0 11 60 4e 3e 5d 89 c6 bd fe 78 ef 3c 65 49 cc bc
       0.20153834 -0.09694169 0.029232498 -0.024937341
0000f0 2a 96 df be 98 5f c4 3e 88 95 9c 3e 10 f9 46 be
       -0.43669254 0.38354182 0.30582833 -0.19430947
000100 49 a7 f8 3d 15 15 5a 3e 4a e4 87 bd 8f 0d 8e be
       0.12141282 0.21297105 -0.066353396 -0.2774472
000110 14 2e dd be 86 f8 ff bd 76 d6 e6 bd 98 76 bd bd
       -0.43199217 -0.12498574 -0.11271374 -0.092511356
000120 d7 a7 35 be 75 f3 a9 3e 21 49 14 be 95 44 64 be
       -0.17739807 0.33193555 -0.14481021 -0.22291787
000130 e0 58 9a bd 64 aa f8 3e e5 c1 e4 3e eb 23 45 be
       -0.07536483 0.48567498 0.4467918 -0.19251983
000140 f1 1e 02 3e 5c 95 c6 bc b8 2a c3 bd 6e 2a 8b 3e
       0.12707116 -0.024241142 -0.09529632 0.2718081
000150 89 af a1 bd 46 2d 8a 3e 05 1a cf 3e aa a0 25 be
       -0.07894809 0.26987666 0.4044954 -0.1617457
000160 ee b8 89 be cf 80 50 3e 15 45 9a 3e 12 b9 70 bd
       -0.26898903 0.20361637 0.3013083 -0.058770247
000170 14 e0 50 be a1 53 46 bd dc 13 d6 be e4 41 2b 3e
       -0.20397979 -0.0484196 -0.41812027 0.16724354
000180 5e a9 6a 3e 6f 79 bf 3d 02 c7 67 3e ac 76 96 bd
       0.22916171 0.093493335 0.22634509 -0.073468536
000190 17 a1 1f be 9f 15 c5 3d 2c c2 3f 3e b4 b1 fd 3d
       -0.15588795 0.096232645 0.18726414 0.1238741
0001a0 6c d3 10 3a 71 ff 88 3e b9 9d 23 3d 43 66 87 3e
       0.00055246684 0.26757386 0.039945338 0.26445207
0001b0 46 d7 a0 3e 7c 32 ac bc 6c 9d 81 bd 96 03 87 3b
       0.3141424 -0.021020167 -0.06328854 0.0041203005
0001c0 ec 3c c7 be fd 21 15 3e e8 cf 04 bd c7 3c af 3e
       -0.38913667 0.14563747 -0.032424837 0.34226057
0001d0 4d 88 8c 3d ee c4 4b bc 78 2e 5c bc d1 cb 9b 3e
       0.06861935 -0.012437088 -0.013438813 0.30428937
0001e0 4f 1b d7 3d 7a ba 6c be 34 3a 15 be f1 98 f3 bd
       0.105032556 -0.2311801 -0.14572984 -0.11894406
0001f0 5c 73 2d 3e 3c 77 c9 3e 6f ae 2f be b3 9a 4f be
       0.16938537 0.3934878 -0.17156385 -0.20273857
000200 60 fa c7 3d 7a d3 0d 3e 76 2c 8b bd ed 34 82 3d
       0.09764552 0.13850203 -0.067955896 0.06357751
000210 17 47 8c 3e 45 80 3f 3e 24 9b 88 bd 42 45 07 be
       0.27397987 0.18701275 -0.06670216 -0.13210014
000220 88 d4 2c 3d b3 f8 37 bf 46 7d 88 bd 3f 5a 49 3e
       0.042194873 -0.7186386 -0.06664519 0.19663332
000230 7f ad 7c 3e 9f d7 ce be 52 25 b0 be 1d 61 2a 3e
       0.24675559 -0.4039888 -0.34403473 0.16638608
000240 93 91 16 be 2d 42 4e be 56 40 90 3e 20 9c c2 3d
       -0.1470397 -0.20142432 0.28174084 0.09502435
000250 47 b7 01 3d 05 96 2f be 50 28 7e bd cd e7 b0 3e
       0.031668928 -0.17147072 -0.062050164 0.3455185
000260 10 86 63 bd 4b e5 1a be 92 51 bb 3e cf 8d 83 3d
       -0.055547774 -0.15126531 0.3658567 0.06423532
000270 7f d3 0e be c5 a3 5e be 70 f5 c6 3e 14 7f cb be
       -0.13947867 -0.2174216 0.3885913 -0.3974539
000280 97 b7 de be 21 bf a6 bd 52 36 82 be af 5e 65 be
       -0.43499443 -0.08141924 -0.25432068 -0.223994
000290 3c c7 9a 3e 4f 9d e1 3d b4 b4 d9 bd 76 01 6e 3e
       0.3023013 0.11016332 -0.106301695 0.23242745
0002a0 37 5e 4f be 34 2f 9f 3e 66 18 44 be 64 ce 4c bd
       -0.20250784 0.310907 -0.19149932 -0.050001517
0002b0 58 27 3b be de de 9f 3e ad 56 3a 3d 02 ae f4 bd
       -0.18276727 0.31224722 0.045492817 -0.11947252
0002c0 f5 8c 5d 3e c7 ac 2b 3d e0 3d 15 3e 80 b8 27 be
       0.21635802 0.04191282 0.14574385 -0.16378975
0002d0 15 ff 2d be 47 85 09 3e 3d 3d 3d 3e 9e c5 d1 3e
       -0.16991837 0.13429748 0.18480392 0.40971082
0002e0 b9 55 a3 3d 9f aa 71 bd bf 48 ac 3d 81 29 fa bd
       0.07975335 -0.059000608 0.08412313 -0.122149475
0002f0 f5 cb 01 bd af 47 4f 3e be 3c 0a 3e 9e 5a f7 3e
       -0.03168865 0.20242189 0.13499734 0.48311323
000300 34 97 4f be 62 d8 58 3d 1f 6f 0a bf f5 f5 07 3e
       -0.20272523 0.052940734 -0.5407581 0.13277419
000310 17 5c 9a bd bb d1 98 bd b7 f0 1b 3e 3d a1 1c 3d
       -0.07537096 -0.07461878 0.15228544 0.038239706
000320 3a c9 f1 bd 4a cb bf be ea 48 8d 3e a2 3e 38 bf
       -0.11805959 -0.37459785 0.27594692 -0.7197057
000330 49 57 03 be d8 fb 16 3d e1 74 b8 3d eb 94 44 3e
       -0.12826265 0.03686127 0.09006668 0.19197433
000340 a0 5b a0 be e7 c8 8d 3d 48 c5 3c ba 4d 72 41 bd
       -0.31319904 0.06923085 -0.0007201028 -0.047228146
000350 e9 19 76 3e 2c a2 d8 bd ae 53 57 be ae 9d 3a bd
       0.24033321 -0.10577807 -0.21028015 -0.04556053
000360 c8 3e 9b 3e fc 68 b1 bd b3 de 7b be 59 b8 8d 3d
       0.30321336 -0.08662602 -0.24596672 0.06919927
000370 ae 06 df bd 19 4a c8 3e 44 ee 7d be de b1 fa 3d
       -0.10889946 0.39119032 -0.24797922 0.12240957
000380 9f b9 90 3d b5 24 8c 3e f3 84 c1 be 33 d1 9c be
       0.070666544 0.27371755 -0.37796745 -0.30628356
000390 50 49 97 3d d6 86 93 be 81 20 46 be 48 26 4e be
       0.0738703 -0.2881381 -0.19348337 -0.2013179
0003a0 6f 77 9f be 2c 0e 06 bf cc 5f 46 3e 9a a8 af 3b
       -0.31145808 -0.52365375 0.19372481 0.005360675
0003b0 04 f7 15 bd 51 21 41 bd 61 ed 6c 3e d6 dd b4 bd
       -0.036612526 -0.047150914 0.23137428 -0.08831374
0003c0 81 d6 34 bc c7 1e 0a 3d a8 1b bd 3d ce 1e f3 3d
       -0.01103747 0.033720758 0.09233791 0.1187111
0003d0 c2 4c 1b be da 89 ac 3d 98 1b 3d bd c6 8a 91 be
       -0.15166 0.084247306 -0.046168894 -0.28426188
0003e0 c0 04 3a be 84 d7 87 be db 93 4f bd 1a ff 52 3e
       -0.18165874 -0.26531613 -0.050678115 0.20605126
0003f0 04 85 a7 bd 4d b0 97 3c 51 a3 0b bd cb b9 89 3e
       -0.081796676 0.018516684 -0.034091298 0.2689956

arith.constant3 f4 [32]
000000 58 61 ac bf fb 11 ce be ff 31 38 3f b7 23 21 40
       -1.3467207 -0.40248093 0.7195129 2.5178049
000010 09 3c db be 96 2a 88 bf b3 43 f0 3e 36 b7 c7 3f
       -0.4281924 -1.0637996 0.4692665 1.5602787
000020 6a 08 b1 3f 76 01 2f 40 1a ea 86 3f bc c2 54 3f
       1.3830693 2.7344642 1.0540192 0.8310964
000030 d1 18 82 3e d4 46 45 3f 8f 57 7a bf 2c 9b 9b 3f
       0.25409558 0.770612 -0.97789854 1.215673
000040 31 e6 4b 40 fc 6d 36 40 83 c0 80 bf 06 8c 50 3e
       3.1859248 2.850463 -1.005875 0.20365915
000050 97 1a 08 3f ca 55 42 3f 09 e2 85 bf 42 72 b3 bd
       0.5316557 0.75912154 -1.0459605 -0.08762027
000060 ee f3 04 40 30 bf 1b c0 b6 ea c8 3f 05 a0 bd 3f
       2.0773883 -2.4335442 1.5696628 1.4814459
000070 6b e6 3d bf 7a 1a 16 40 9a 8f f2 3f 3f 62 03 40
       -0.74179715 2.345366 1.8950074 2.0528715

arith.constant4 f4 [64, 128]
000000 04 be 56 bd 0d 63 28 c0 10 72 97 bd 41 17 0d 3f
       -0.052427307 -2.6310456 -0.073948026 0.5511361
000010 d8 48 46 3d be 9a 03 c0 0a e1 64 3d 9a 61 b1 bf
       0.048409313 -2.0563197 0.055878676 -1.3857911
000020 fb ac 6b bd cd 1d aa c0 84 54 9e 3c 6a 6b 0d 3e
       -0.057538014 -5.316138 0.01932741 0.13810506
000030 8a 74 42 c0 4b 05 07 3e f4 88 14 bd 93 55 67 3d
       -3.038363 0.13185613 -0.03626342 0.056478094
000040 97 69 b9 bd 7d b0 a0 3d 17 42 9c 40 9f a5 12 40
       -0.09053343 0.078461625 4.8830676 2.2913587
000050 28 80 0b 3a fe 20 81 be e0 99 c5 c0 f4 bb 20 be
       0.0005321526 -0.25220484 -6.1750336 -0.15696698
000060 2b cb 13 40 e8 ea 93 3f e8 92 e7 3c 1c 68 37 c0
       2.3092754 1.1556063 0.028268293 -2.8657293
000070 24 6d b6 40 5f 1d 11 c0 2c 34 62 3f 90 22 33 3e
       5.700823 -2.2674177 0.8836086 0.17493653
000080 75 7b 77 be e2 e3 4d bc 28 4b 76 c0 db f0 7c 3d
       -0.24168189 -0.0125665385 -3.8483372 0.061753135
000090 0e f4 8b 40 4d 3d af be 54 f5 0c c1 63 c3 d0 40
       4.373542 -0.34226456 -8.809895 6.523851
0000a0 63 84 d4 bd 6d 6b 5a c0 c4 a4 a0 c0 10 fa 92 40
       -0.10376813 -3.4128067 -5.020113 4.593025
0000b0 0b c0 b0 3c 10 2e 0a c0 ce b4 42 be 72 1b 7f 40
       0.021575948 -2.1590614 -0.19014284 3.9860501
0000c0 f2 ec 2d 3d 0a f7 f0 c0 e1 bd ac 40 9f 0b 20 3e
       0.042462297 -7.530156 5.3981786 0.15629433
0000d0 c2 91 23 3d ff 5a 05 41 a1 3f 2a 40 3d 74 69 3f
       0.039933927 8.334716 2.6601336 0.9119299
0000e0 ec a6 19 3f ad a3 14 be af 97 55 40 13 59 83 c0
       0.6002033 -0.14515562 3.337383 -4.1046233
0000f0 75 71 07 bd 90 d1 4c 40 18 45 e6 3d 8b 16 31 c0
       -0.033067185 3.2002907 0.11243647 -2.767001
000100 47 ad 40 40 c3 15 c4 be 75 88 90 c0 bd 1c 35 40
       3.010576 -0.38297853 -4.5166574 2.829879
000110 d8 01 ab 3d 5f f6 1e 3f 08 9c 06 3d 2d db 66 3d
       0.08349961 0.6209468 0.032863647 0.056361366
000120 d8 18 57 bf c4 d4 98 c0 f8 ae ea bc 43 fd 23 3c
       -0.84022284 -4.7759724 -0.028647885 0.010009113
000130 2c 16 9e 3c eb e4 88 c0 e0 71 c6 3e 48 a0 53 40
       0.019297682 -4.277944 0.38758755 3.3066578
000140 5e 37 30 c0 44 3f 4a be 6f ad cd 3d 9e 62 64 3d
       -2.7533793 -0.19750696 0.100428455 0.05575811
000150 8c 86 0f be a5 6c 2e 40 d4 0a 0c 3e ab aa 08 3f
       -0.1401617 2.7253811 0.13676006 0.5338542
000160 a9 6e 5b 3f 4b 78 8e bf 55 75 a9 c0 32 ab 1a be
       0.8571573 -1.113046 -5.2955728 -0.15104368
000170 45 a4 a5 bf 7f e7 47 bd 1f 2b 60 c0 3e 1e 32 3e
       -1.2940756 -0.048804756 -3.502632 0.17394349
000180 38 ac 57 bd a6 f4 cd c0 1e 71 30 3f 28 61 43 3e
       -0.052654475 -6.4361143 0.68922603 0.19080031
000190 59 b7 db 40 ab f3 6f c0 6f 94 3b 3c 87 60 98 c0
       6.8661313 -3.7492473 0.011448964 -4.761783
0001a0 9f fe 19 3c 61 3a b6 be a8 5e 84 bf 7a 11 87 bc
       0.009399085 -0.35591415 -1.0341387 -0.016487826
0001b0 a1 e5 dd 3f ea a0 b5 3d e6 7b 8b 3d 94 d8 f7 3f
       1.7335702 0.088685825 0.06810741 1.9362969
0001c0 3f b7 46 39 68 4e 85 3d 57 b0 06 40 d9 90 fa 3c
       0.00018951016 0.065090954 2.104513 0.030586647
0001d0 56 33 63 40 c3 d5 90 c0 0f 75 16 c0 78 0b b6 40
       3.5500083 -4.526094 -2.3508947 5.6889
0001e0 5b a6 50 40 9f 6d 38 bd dd 31 08 3e e4 d0 6d bd
       3.2601535 -0.045026418 0.13300271 -0.05806054
0001f0 2b db 6e bf 56 ba 00 c1 a0 97 f7 bd 15 4d 0e 3f
       -0.93303174 -8.045492 -0.12089467 0.5558637
000200 fe e9 8b bb d2 08 9b 3f 14 83 3f 3d 07 fe 94 3f
       -0.0042698374 1.2112067 0.046755865 1.1640023
000210 f3 3e 0b 3e 11 00 a9 bf 77 ff 09 3d 21 28 a7 40
       0.13598232 -1.3203145 0.033690896 5.2236485
000220 6b ef 54 3d 1e d2 b8 c0 42 aa 26 3e f3 70 a5 be
       0.05198614 -5.775649 0.16275886 -0.32312736
000230 78 1f 83 3f 9b d8 86 bd 38 8b 23 3c ee d6 ab 3d
       1.0243979 -0.06584283 0.009981923 0.08390604
000240 21 48 b2 3c fa 43 0b be ff 4f 37 c0 84 6b 35 3f
       0.02176291 -0.1360015 -2.8642576 0.7086718
000250 aa ef 86 c0 74 ef 92 bd d4 6a 90 40 c7 e9 fb bb
       -4.216756 -0.07174578 4.5130405 -0.0076877805
000260 69 07 65 c0 0a 22 5e 40 14 df 44 bd 1d d2 7d be
       -3.5785773 3.4708276 -0.048064306 -0.24787183
000270 f2 5d 35 c0 1d 54 59 3f ca 70 91 3f f9 50 99 3d
       -2.833859 0.8489397 1.1362545 0.074861474
000280 1c fe 42 be 8c 29 05 be 27 45 6b 3f 07 6c 4f 3d
       -0.19042248 -0.1300413 0.91902393 0.050640132
000290 ce 3e 28 40 a3 c2 b1 3d 4a db d4 40 a8 12 d5 40
       2.6288333 0.08679702 6.6517687 6.6585274
0002a0 b8 76 b4 bd b9 d5 8c c0 db 6a 33 c0 07 b6 b1 c0
       -0.08811706 -4.401089 -2.803397 -5.55347
0002b0 5c cb e2 bc 7e 0c 65 40 0a ed 15 bc f5 34 70 c0
       -0.02768486 3.5788875 -0.009150753 -3.7532322
0002c0 4d 09 9a 3e a3 8f 90 40 1e 47 09 c0 e7 22 98 3c
       0.3008522 4.517534 -2.1449656 0.01857133
0002d0 2f 4e a1 3d d7 77 32 c0 d4 dd d5 3f df d0 a2 c0
       0.078762405 -2.7885644 1.6708322 -5.087997
0002e0 ac 50 6c 40 b7 b1 f9 3d 42 68 83 bf 22 28 85 40
       3.6924238 0.121920995 -1.0266192 4.161149
0002f0 77 0b 63 3e 86 ed 12 40 6f 79 58 bc 8e 41 33 c0
       0.22172342 2.2957473 -0.013212546 -2.8008761
000300 61 01 4d 40 91 30 84 bc a3 dd 6b c0 37 61 a7 3e
       3.2032092 -0.01613644 -3.6854026 0.32691357
000310 f6 89 06 3e d8 8f a6 bf ca 94 0e 3c e8 e7 18 3e
       0.13138565 -1.3012648 0.008702466 0.14932215
000320 9a e5 11 40 fa 8b 09 c0 51 5e 3a be 0d 9c 4f bc
       2.2796388 -2.1491685 -0.18200041 -0.012671483
000330 7b 96 38 3e 63 6b cf 40 a1 8e 9d 40 38 e1 4f 40
       0.18026154 6.4818587 4.9236608 3.2481213
000340 49 bc 82 c0 a6 68 ba bd d8 ea 20 3c c7 f2 20 bd
       -4.085484 -0.09101991 0.009821616 -0.03929403
000350 3f b0 45 bb fc 52 d0 bf 84 39 0f 3e 55 50 cd 3e
       -0.0030164865 -1.6275325 0.13986784 0.4010035
000360 da 59 74 40 a2 47 40 40 2b 3b de be cb 63 09 be
       3.817984 3.0043721 -0.43404517 -0.13416974
000370 95 19 07 c0 56 f9 27 3e f6 7d 9b c0 6e 77 32 3e
       -2.1109364 0.16403708 -4.859126 0.17428371
000380 f0 af 49 be 36 54 99 40 01 7e 1c 3f af 66 55 3d
       -0.19696021 4.7915297 0.61129767 0.05209988
000390 39 aa 5e c0 cd 8b 9d bf b0 6c c7 3c 6a 9d bc be
       -3.4791396 -1.2308289 0.024343818 -0.36838847
0003a0 fa 36 14 3d 6e 9a 0c bb 17 55 3d c0 01 e1 ac bd
       0.036185242 -0.0021454352 -2.9583185 -0.084413536
0003b0 06 4b 9a 40 a3 08 e6 3d fb 2c 73 3d 21 de e9 40
       4.821658 0.11232116 0.05936907 7.3083653
0003c0 eb 02 ee bc fd d0 da 3d ff ef eb be 13 a0 b7 bb
       -0.029054126 0.106843926 -0.4608154 -0.005603799
0003d0 f6 48 0b 41 61 32 14 41 cc 86 7e 3f fa ef a7 3f
       8.705313 9.2623 0.99424434 1.312011
0003e0 3e d7 b8 c0 e1 86 37 3e f4 c9 80 3d 83 1e ae 3d
       -5.7762747 0.17922546 0.062885195 0.085019134
0003f0 6f 47 8e c0 f8 9c 8e 3f fc b9 47 3c a9 5d bd 40
       -4.44622 1.1141653 0.012190338 5.917683

arith.constant5 f4 [64]
000000 8f be b2 3e 11 54 bb bf 3f fe 3c 3f c7 76 5f 3f
       0.3491101 -1.463503 0.7382545 0.87290615
000010 f4 12 d4 bf 7c 0f be 3f 0f d5 f1 3f 30 50 26 c0
       -1.6568284 1.4848475 1.8893145 -2.5986443
000020 c1 cd c4 3f d2 72 ae 3f 6d 70 9e 3f a6 5c a6 3d
       1.5375291 1.362879 1.237806 0.0812314
000030 b3 5e a1 3f 05 dd a4 bd e2 e2 d9 3f ac ff f7 3f
       1.2607025 -0.08049969 1.7022364 1.93749
000040 84 23 a7 bf 27 ce 3f 40 9f 93 19 3f 3d 5c 43 3f
       -1.3057714 2.9969575 0.59990877 0.7631262
000050 db c4 26 40 d8 17 11 3c 58 d0 77 3f 10 89 97 3f
       2.605765 0.008855782 0.9680228 1.1838703
000060 33 4c 94 3f e6 f4 2b 40 48 24 10 40 d5 9f 20 c0
       1.1585754 2.6868224 2.2522144 -2.5097554
000070 f4 53 cf 3f 59 0c a5 3f f6 08 12 40 ae d0 3f 39
       1.6197495 1.2894393 2.281797 0.00018292919
000080 71 ab 45 c0 a5 3a 9d be 09 a9 08 40 c9 e0 03 40
       -3.088589 -0.30708805 2.135317 2.0605948
000090 dd 0b ba 3e 29 47 77 3f 58 95 a1 3f 32 0f 3d 3f
       0.36337176 0.96592957 1.2623701 0.7385131
0000a0 d2 95 f5 3f ee 04 18 40 73 67 1f 3e 2d 00 7d be
       1.9186347 2.375301 0.15566806 -0.24707098
0000b0 bc 1d a6 3e f3 bf b6 3f e0 1c f5 3f 03 bc 6e bf
       0.3244456 1.4277328 1.9149437 -0.93255633
0000c0 ba 78 87 3e de 87 93 3f 77 3f 68 3f ed 41 fe 3f
       0.26459295 1.1525838 0.9072184 1.9863869
0000d0 49 44 8d c0 30 f4 d1 3f 0c 6a 88 bf 7f 42 98 3d
       -4.4145856 1.6402645 -1.0657363 0.07434558
0000e0 a2 34 ef be 3a e0 d3 3f b1 7a 51 3f 82 5f 83 3f
       -0.46719843 1.6552804 0.8182784 1.0263522
0000f0 c1 e9 90 3c 59 01 9a 3e b7 6a ac 3f 26 49 27 40
       0.017689588 0.30079153 1.3470067 2.6138396

arith.constant6 f4 [128, 784]
000000 db c8 66 3e 72 38 06 be 61 54 84 be 58 db 00 bf
       0.22537558 -0.1310747 -0.25845626 -0.5033469
000010 9b 1b b4 3d 06 c7 34 3d b4 99 37 be d1 9b 37 bf
       0.08794328 0.044135116 -0.17929727 -0.7172213
000020 61 b9 d8 be f1 78 4e be f9 01 59 be e5 c5 5c 3d
       -0.42328933 -0.20163323 -0.21192159 0.053899664
000030 fe 58 c2 3e 61 9f 41 3e f0 c1 1f be bd 56 d0 3e
       0.3795852 0.18908454 -0.15601325 0.40691176
000040 d2 ab 90 3d f1 f5 64 bc 71 2b 00 bc ef 0b 18 bf
       0.07064022 -0.013974653 -0.007822857 -0.5939321
000050 a9 4f 76 bf 4a b8 e4 be 49 f6 3b bc 91 b8 f0 bd
       -0.962153 -0.4467185 -0.011472293 -0.11753953
000060 8a 9e b6 be f4 0f 7d be 7d e8 0c bc 5a 82 1b be
       -0.3566783 -0.24713117 -0.008600351 -0.15186444
000070 ee 44 1f 3e f6 a7 53 3c 58 99 93 be 61 a8 e9 be
       0.15553638 0.012918463 -0.2882793 -0.45636275
000080 cf 77 b5 bd 84 ee 5f be 9d a1 ab 3e 11 b4 3d be
       -0.08860742 -0.2186833 0.3352174 -0.18525721
000090 23 02 04 3c 86 ac dc bd 21 b7 23 be b8 28 a2 3c
       0.00805715 -0.10775094 -0.15987827 0.019794807
0000a0 6f 55 a3 3e 7e ba 85 3e 26 06 2f 3e 1e 5f ab 3e
       0.31901118 0.26118845 0.17092189 0.33471006
0000b0 fb 60 cc bd fb 44 09 be 80 11 17 be 0a 9e 30 be
       -0.09979435 -0.1340522 -0.1475277 -0.17247787
0000c0 93 3b 90 be a1 aa 0a bd 4a 11 78 be 87 8b bf be
       -0.28170452 -0.03385413 -0.24225345 -0.37411138
0000d0 0e dc 09 bf b9 1e c0 be 19 03 f7 3b 68 f6 92 3d
       -0.538514 -0.3752344 0.007538211 0.071759045
0000e0 bc f3 e6 bd 80 7e 88 bc 22 de 50 be 8a 1c ac be
       -0.112769574 -0.016661882 -0.20397237 -0.33615524
0000f0 cc b4 f8 bd 23 eb 32 3e ab 88 1d 3e 0e fb 29 bb
       -0.12143859 0.1747251 0.15384166 -0.0025936994
000100 6a d9 54 3e c4 8f 68 3e 92 e2 1c bd 02 81 bd 3c
       0.20786062 0.22711092 -0.03830201 0.023132805
000110 ca d0 0e bd 85 46 ac 3d 19 7f 96 3e 98 05 b1 3d
       -0.034867086 0.08411888 0.29393843 0.08643645
000120 90 f0 f4 3c 7a 78 99 bc d7 d1 c5 3d 5b 1c 5b 3e
       0.029899865 -0.018734206 0.096591644 0.21397536
000130 55 11 3b be ab 94 06 bc 79 13 4a 3c a5 7d 72 be
       -0.1826833 -0.008214156 0.012333744 -0.23680742
000140 6d f8 0c bf c0 d7 8c be 93 e8 21 be dc fb 9e bd
       -0.5506657 -0.27508354 -0.15811376 -0.07762882
000150 05 2e 35 be 97 c1 a1 be ae c0 a3 be 57 06 b6 be
       -0.17693336 -0.3159301 -0.3198294 -0.35551712
000160 42 05 bc bd af ba 63 3d 75 e6 b7 bd a1 c1 5a 3e
       -0.0918069 0.055597957 -0.08979503 0.21362926
000170 a7 df 00 3e a3 5e e7 bd 1f 5e 38 be 1a c6 79 3d
       0.12585317 -0.112973474 -0.18004654 0.06097994
000180 f1 21 a2 bd 32 51 da 3d 2b fc 1c 3e dc 75 d3 3a
       -0.0791663 0.10660018 0.1533057 0.0016133147
000190 87 92 f1 3d c6 ef 66 bd ee d2 4f be b5 d4 86 3d
       0.11795526 -0.05638101 -0.20295307 0.065835394
0001a0 49 ff 22 3e b8 bc 09 bd e3 7b 97 bd 0e 87 91 be
       0.15917696 -0.03362724 -0.073966764 -0.2842335
0001b0 33 a2 4f bf df 40 c6 be e4 a5 bd be d4 80 bb bd
       -0.8110687 -0.38721368 -0.37040627 -0.091554314
0001c0 b9 a9 08 be 1d 88 80 be e1 e7 12 be 20 3c d4 be
       -0.13345994 -0.25103846 -0.14346267 -0.41452122
0001d0 31 f2 c7 bc b3 49 f3 bd 5c 85 ac bd 31 57 28 3e
       -0.024407478 -0.118792914 -0.08423874 0.16439511
0001e0 81 18 8d 3d eb c4 77 be ed fb 4d 3d 68 e5 98 3e
       0.068894394 -0.24196212 0.050289083 0.29862523
0001f0 04 10 bd 3d 17 88 d1 3c 74 4e 6b 3e 06 f2 fd bb
       0.0923157 0.025577588 0.22979146 -0.0077497987
000200 0e 3a 02 3e 03 e2 97 bc f8 32 67 be f9 2a 83 be
       0.12717459 -0.018540388 -0.22578037 -0.25618723
000210 49 ea 40 3d 48 05 33 bd b3 8f 89 bd 1b a9 a7 be
       0.04709843 -0.04370621 -0.067168616 -0.32746205
000220 72 4c 11 bf a0 0c 80 be c3 12 a5 be e1 f4 63 be
       -0.5675727 -0.25009632 -0.32240877 -0.22261383
000230 3c cc ff bd a5 91 b7 bd b5 81 86 be 05 45 6c be
       -0.124901265 -0.08963326 -0.26270834 -0.23073204
000240 79 97 1b be ff 01 98 be bd f4 cc bd 8f 70 91 bd
       -0.15194501 -0.29689023 -0.100076176 -0.07101547
000250 82 5f 17 3d 75 a0 ef bc 16 5e 5a 3e 82 5c 0b 3e
       0.036956318 -0.029251317 0.21324953 0.13609508
000260 82 82 f0 bd 18 84 2a be 81 eb 1a bd 6b e4 1c 3d
       -0.117436424 -0.16651952 -0.03782225 0.038303774
000270 29 c3 5e 3d e7 d1 1f be 5b c4 ef bd 4d 08 35 be
       0.054385338 -0.15607415 -0.11707374 -0.17678948
000280 6f f8 a0 bd d2 6a 0b be 31 5b 26 be 4b 32 be be
       -0.07859885 -0.13614967 -0.16245724 -0.37147745
000290 2b 31 8f be b0 48 27 bf de 71 a1 be 45 1b 62 be
       -0.279672 -0.6534529 -0.31532186 -0.22080715
0002a0 06 23 8f be 56 a8 57 be 90 f9 96 be c5 26 48 be
       -0.27956408 -0.21060309 -0.29487276 -0.1954604
0002b0 d8 d6 ca bb 99 27 61 be a8 3e ad bd 44 b3 57 be
       -0.006190162 -0.21987762 -0.08459216 -0.21064478
0002c0 6b 14 2a bd 1a e7 a5 3d cb 5c dd 3d 67 fd 65 3e
       -0.04152338 0.0810072 0.108087145 0.22459947
0002d0 a5 c6 7f 3e 12 d8 b8 bd e5 ca d0 bd ec 06 42 be
       0.2497812 -0.09025587 -0.10194949 -0.18947953
0002e0 ca 56 cf bd e7 1e be 3d dd 8c f3 bd 8f 00 2b be
       -0.101239756 0.09283238 -0.11892102 -0.16699432
0002f0 39 d3 26 be 10 4c ac bd 8c e4 6c be 8a f6 6c be
       -0.16291513 -0.08412945 -0.23134059 -0.23140922
000300 5c 50 a3 be 7e 80 3f bf c0 7b 9f be dd 27 4e be
       -0.31897247 -0.7480544 -0.311491 -0.20132394
000310 f4 4e 9c be 57 05 83 be e6 84 a6 be 00 61 00 bd
       -0.30528986 -0.2559001 -0.32523268 -0.031342506
000320 ea 02 5b 3b 60 d1 25 be 33 53 2b be d8 87 14 3b
       0.0033418485 -0.16193151 -0.16730957 0.0022663977
000330 3f 94 c1 bd 8e de d0 bc 04 32 01 3e 39 98 89 3e
       -0.09452104 -0.025496747 0.12616736 0.2687395
000340 48 b7 0e 3e cd 80 e7 bd bb cb a1 3d b6 7c 2c 3e
       0.13937104 -0.11303864 0.07900187 0.16844448
000350 02 14 69 bc 38 f2 9b bd f2 3e 09 bd 0d 7b e0 bd
       -0.014225962 -0.07614559 -0.033507295 -0.1096097
000360 d3 3b 09 be 20 5d db bd 5e 90 1f be 0f de 46 be
       -0.13401727 -0.107111216 -0.15582415 -0.19420646
000370 3c b9 a4 be 4a cf 17 bf 51 9a 28 bf 51 1c 5e bd
       -0.32172573 -0.59300673 -0.6586047 -0.054226223
000380 cb c3 bb be f8 97 9f bd c8 8a d1 3b a7 e4 ac bb
       -0.36672816 -0.077926576 0.006394718 -0.005276281
000390 ea f4 45 be bc de d5 bd ea 1e a5 bd c2 70 65 bd
       -0.19331709 -0.10442874 -0.08062537 -0.056015737
0003a0 ff e8 6f be f9 d0 fc bb 01 5c 41 3d 13 1c fa 3d
       -0.23428725 -0.007715341 0.047206882 0.12212386
0003b0 3d 29 a4 bd 0b 84 64 bd 16 b1 d3 bd 3a 75 6a 3d
       -0.08015678 -0.05578999 -0.10336511 0.057240702
0003c0 a7 5b 30 3d 44 30 bf bd b6 de e1 bd b7 a8 24 be
       0.043056156 -0.09335378 -0.11028807 -0.16079985
0003d0 d4 1d e4 bd fb 5c 17 be e3 26 0d be 8b 82 89 be
       -0.11138502 -0.14781563 -0.13784365 -0.2685741
0003e0 6d ce 93 be 67 0b 76 be aa ff 84 be 9b c8 e4 bd
       -0.28868428 -0.24027787 -0.25976306 -0.11171075
0003f0 1a f0 e9 bd 5b 4c 42 3e 9b 32 21 3e c9 2a a6 3d
       -0.11422749 0.1897444 0.1574196 0.08113629

arith.constant7 f4 [128]
000000 41 ea 8e 3d e8 e0 2c bd 02 6b 3d 3d 1a a8 9f 3d
       0.06978274 -0.042206675 0.04624463 0.07795735
000010 f0 7e 30 3e aa a9 8a 3c 15 83 44 3d 58 b6 12 bd
       0.17235923 0.016926605 0.047976572 -0.035818428
000020 03 b3 0a 3f eb a2 1e 3d 70 e9 0e 3e 0a ff c1 3e
       0.541794 0.03872959 0.13956237 0.37889892
000030 cc 5f 40 3d 44 ae 9a 3e a3 f9 7d 3d 0e 79 c1 3d
       0.04696636 0.3021108 0.06200565 0.094469175
000040 b2 24 8f 3e f9 60 c7 3c b3 4d b9 bc 83 2f 07 bd
       0.27957684 0.024338232 -0.022620058 -0.033004295
000050 55 2d 29 3d 22 5d 9c 3e 3a 57 04 bd 14 2c 8a 3e
       0.041302998 0.30539805 -0.03230975 0.26986754
000060 8a 56 f1 3b 17 1c a6 bd c8 74 ec 3e f9 fd 65 bd
       0.0073650526 -0.081108265 0.46182847 -0.05615041
000070 0e 55 c5 bc ed ac 9f bc f1 08 86 bd c3 17 41 3e
       -0.024088409 -0.019491637 -0.06544674 0.1885672
000080 f3 eb 57 3e 87 66 bb bc e6 93 66 3d 80 89 1f 3e
       0.21086101 -0.022876037 0.05629339 0.15579796
000090 c2 5a ff bc b4 64 d6 3d e1 9a 5d bc 56 8b 28 3d
       -0.031171206 0.10468426 -0.013525696 0.041148506
0000a0 17 55 cf 3d a9 46 9d bc 33 2a c2 bc 7b 41 fb bb
       0.101236515 -0.019198732 -0.023701763 -0.007667718
0000b0 67 6d 0d 3e fe 51 ab bc 95 13 0d 3e ae b2 50 bc
       0.13811265 -0.02091312 0.13777001 -0.012737913
0000c0 b0 fd 0e bc 67 28 ce bc 50 1c d9 bc 2f 5f 3b 3e
       -0.008727476 -0.02516575 -0.026502758 0.18298028
0000d0 d8 06 10 3e ba c5 16 bd 10 fc 9c bd 61 15 70 3d
       0.1406511 -0.03680966 -0.076652646 0.05861414
0000e0 bb be 4f 3a 88 ee 45 3e 38 a4 2c bc 6f d5 32 3b
       0.00079248444 0.19329274 -0.0105372 0.002728786
0000f0 47 a8 4d 3e b9 1d 8c bc c2 b3 27 3e 36 87 7d 3c
       0.20083724 -0.017104017 0.16377166 0.015474131
000100 b0 1d e0 bc 87 f2 cd 3e b8 5b f5 3a 8f ad 8b bc
       -0.027357906 0.40224096 0.0018719351 -0.017050533
000110 97 80 a4 3e 0e fa ab bc c4 23 dc 3d 92 5f 72 3d
       0.32129356 -0.020993259 0.10749009 0.059173174
000120 8c ff a3 bb e5 ca d2 3b c5 45 18 3e ac 6f 09 bd
       -0.005004829 0.0064328783 0.14870365 -0.033553764
000130 ba cb 8c 3e 46 69 99 bd dd 09 c6 bc 35 2c 04 bc
       0.2749918 -0.074907824 -0.024174625 -0.00806718
000140 c9 9e b4 bc 4f af a4 3d 22 d2 e3 3d fe 5b 6c bd
       -0.02204837 0.0804125 0.11124064 -0.057704918
000150 7c fd 49 be c7 ec 3f bd 23 e9 9d 3e c6 8c f8 3d
       -0.19725603 -0.046856668 0.30841932 0.121362254
000160 ea ff 51 bc b1 2f de bd 0a 68 38 bd 4d 01 b1 3d
       -0.012817362 -0.1084894 -0.045021094 0.08642826
000170 2a ee df 3c 33 3a 8e 3e 36 7a e6 3c fd c1 68 bd
       0.027335245 0.27778777 0.028134447 -0.056825627
000180 ea a9 a8 3e 01 d8 1b bd d8 13 c3 bc 92 ec bc 3e
       0.32942134 -0.038047794 -0.023813173 0.3689924
000190 f0 e2 3a bd f5 90 71 bc 3d 63 20 3c d9 36 f4 bc
       -0.04562658 -0.014744033 0.009789285 -0.02981131
0001a0 e2 ae 00 3e ae 2b fe 3d 4b d1 e1 bd f8 81 b5 3d
       0.12566712 0.12410675 -0.110262476 0.0886268
0001b0 5f a3 94 3e 69 06 54 3e 36 b5 4d bd 2e 18 c6 bc
       0.29030892 0.2070557 -0.050221644 -0.024181452
0001c0 93 c9 a1 3d ff 64 76 3e fa 54 1e bd d9 f0 2c 3c
       0.07899775 0.24061964 -0.03865526 0.010555469
0001d0 ed ef 21 3d 9f 8d 09 bd 17 a8 ac 3c 9b 36 e2 bc
       0.03953545 -0.033582326 0.021076245 -0.027613929
0001e0 99 35 b7 bc 4c 08 89 3e 9d d6 7f 3e 06 c9 07 3f
       -0.022364425 0.26764143 0.24984212 0.5304111
0001f0 54 dd 10 bd 49 07 04 bc 6e 5f 14 3e dc b1 b5 3b
       -0.035367325 -0.008058378 0.14489529 0.005544884
